models/drl/prob_ddpg_eur.pth (torch, 319311 bytes, 22 tensors)

gru.weight_ih_l0 f4 [192, 10]
0.093489066 -0.07243785 -0.10842401 0.0061539114 0.0043656677 -0.0926823 -0.055219814 0.050078943
0.021382049 0.12352458 0.029605776 0.10144308 -0.013276592 0.10881956 -0.115030095 -0.08230811
0.02197884 0.040988654 -0.087048024 0.04076673 0.039819166 0.044613987 0.059182897 -0.095715046
0.07615879 0.021255657 -0.015375301 0.071301535 -0.011338294 0.010461837 0.078706875 -0.047028318
-0.06414965 -0.050307557 -0.020965636 0.05134429 -0.082892224 -0.038740844 -0.1019261 0.036281183
0.047656745 -0.054207563 0.10575934 -0.0049926788 0.08334206 -0.10412072 0.044379294 0.020004079
0.081948444 0.102858186 -0.03720613 0.08816899 0.09841354 0.04480703 -0.048031315 0.12019096
0.11483869 0.08225833 -0.107847005 0.11584875 -0.040566936 0.016761124 0.05418378 -0.092423946
0.0023856163 0.06516728 0.11245246 0.0335934 0.047459766 0.061513916 0.10171451 -0.004256025
-0.08554515 0.0033420026 -0.029438525 0.0038564205 0.11357115 -0.1032878 0.011313483 -0.12067559
0.002246052 -0.050552964 0.06835261 0.11527325 -0.09872165 -0.081814006 0.08165085 0.091128975
-0.034291297 -0.12231484 0.013189077 -0.02536656 -0.123960495 -0.033003166 0.10068087 -0.10909109
0.09075327 -0.066639826 0.081918925 -0.08726066 0.08152565 -0.01739785 0.046747804 -0.08468884
0.043921098 -0.070320696 0.0594676 -0.052709296 -0.12057382 0.121065974 0.05300796 -0.10372217
-0.10477966 0.09868024 -0.07988225 -0.04156658 -0.09362584 -0.0030617565 0.09838523 0.0312514
0.053349838 -0.022456571 -0.07157299 0.07932837 -0.02430892 -0.06860466 -0.03631535 -0.10858011
0.06571442 0.00892821 0.061508283 0.052828953 0.09768768 -0.04813011 0.021796986 -0.058811083
0.050817013 -0.0061428547 -0.020897657 -0.029699147 0.042901143 0.07968712 0.09687826 -0.06251055
-0.00620386 -0.104883775 0.0059515387 -0.061016858 0.022785708 -0.09124005 0.081097364 0.107893676
0.039255008 -0.06514321 0.1125084 -0.1087973 0.067712754 0.12216729 -0.11794141 0.092928454
-0.09560503 -0.0014946163 -0.044910163 0.08755219 -0.028791562 0.013985172 -0.01710318 0.08890946
-0.1037211 0.102712065 0.08587353 -0.10953471 -0.114659846 -0.059301794 0.039160848 -0.012398094
0.010926291 -0.099353 -0.099800244 -0.005995691 -0.018711358 0.043892488 0.10175885 0.09521946
-0.05860372 -0.11478822 -0.0031195283 -0.03509493 0.1199103 0.03662254 -0.046091408 0.032895163
-0.09693149 -0.0891422 0.061640292 -0.089070395 -0.111608416 0.07754269 -0.09989314 -0.0177501
-0.060783565 -0.06074077 0.03852254 0.017316371 0.11355232 -0.017087981 0.0021361113 -0.09964214
0.043054014 -0.015469566 0.023411423 -0.09228191 -0.11885269 -0.032261834 -0.012700602 -0.10703595
0.044009 0.023781642 -0.09117162 0.032526776 0.028532684 0.060344964 0.04915403 0.08443326
0.010019213 -0.02084428 -0.11827882 0.104357466 0.11284168 0.039660886 0.0027548075 -0.05754833
-0.10070662 0.12150857 -0.122492075 0.09613797 0.053054437 -0.054417446 -0.11247672 0.0522009
-0.05969329 -0.04273106 0.10259035 -0.06929214 -0.012482151 0.025809512 -0.089251086 0.054835603
0.004493892 -0.0959349 0.029815257 0.099075586 0.019286111 -0.017070606 0.11226766 -0.019489616
00000000: 3277 bf3d 4c5a 94bd 680d debd c0a6 c93b
00000010: e00d 8f3b 38d0 bdbd 2c2e 62bd 941f 4d3d
00000020: 6829 af3c 74fa fc3d d087 f23c 64c1 cf3d
00000030: 1086 59bc cadc de3d e694 ebbd 2891 a8bd
00000040: f80c b43c b8e3 273d 3c46 b2bd 04fb 263d
00000050: 6c19 233d 28bd 363d c469 723d 4006 c4bd
00000060: 24f9 9b3d 5820 ae3c b0e8 7bbc 8a06 923d
00000070: 40c4 39bc 2068 2b3c 1231 a13d c4a0 40bd
00000080: e460 83bd 4c0f 4ebd 20c0 abbc 644e 523d
00000090: 66c3 a9bd b8ae 1ebd a2be d0bd 949b 143d
000000a0: b833 433d c008 5ebd 5a98 d83d a099 a3bb
000000b0: 3eaf aa3d 3e3d d5bd 10c7 353d 98df a33c
000000c0: 96d4 a73d 50a7 d23d 7465 18bd f291 b43d
000000d0: 0a8d c93d 9487 373d 7cbc 44bd ae26 f63d
000000e0: 8c30 eb3d 0e77 a83d e4de dcbd 1c42 ed3d
000000f0: 8429 26bd a04e 893c d0ef 5d3d c448 bdbd
00000100: 0058 1c3b 6c76 853d 7a4d e63d 3c99 093d
00000110: 2c65 423d 04f6 7b3d b24f d03d 2076 8bbb
00000120: 4c32 afbd 8005 5b3b 1029 f1bc 00bc 7c3b
00000130: fe97 e83d 8e88 d3bd 305c 393c c424 f7bd
00000140: 8032 133b a010 4fbd 74fc 8b3d 6214 ec3d
00000150: 942e cabd 1a8e a7bd 9038 a73d d4a1 ba3d
00000160: 0875 0cbd 3480 fabd 0017 583c 88cd cfbc
00000170: 00df fdbd 542e 07bd c631 ce3d 266b dfbd
00000180: dadc b93d 767a 88bd 1cc5 a73d b8b5 b2bd
00000190: ecf6 a63d f085 8ebc a07a 3f3d 5871 adbd
000001a0: 9ce6 333d 4c04 90bd 4c94 733d b4e5 57bd
000001b0: 68ef f6bd 70f1 f73d e01e 593d 4a6c d4bd
000001c0: b896 d6bd de18 ca3d 4e99 a3bd b841 2abd
000001d0: e8be bfbd c0a7 48bb 327e c93d 7801 003d
000001e0: 5c85 5a3d d8f6 b7bc dc94 92bd ea76 a23d
000001f0: 8023 c7bc 9a80 8cbd 68bf 14bd 405f debd
00000200: 4895 863d a047 123c 1cf0 7b3d 2c63 583d
00000210: 7a10 c83d 1424 45bd 988f b23c e4e3 70bd
00000220: 8025 503d 004a c9bb 9031 abbc a04b f3bc
00000230: 1cb9 2f3d 0033 a33d 1c68 c63d 8805 80bd
00000240: c049 cbbb 4ecd d6bd 2005 c33b d0ec 79bd
00000250: 18a9 ba3c 10dc babd 6016 a63d 5cf7 dc3d
00000260: dcc9 203d ce69 85bd ce6a e63d 1ed1 debd
00000270: fcac 8a3d d832 fa3d 448b f1bd 4651 be3d
00000280: 92cc c3bd 00e7 c3ba b8f3 37bd 904e b33d
00000290: 48dc ebbc 1022 653c f81b 8cbc 2a16 b63d
000002a0: ba6b d4bd b45a d23d 76de af3d bc53 e0bd
000002b0: c8d2 eabd 70e6 72bd 2067 203d 6021 4bbc
000002c0: 3004 333c 9679 cbbd 1264 ccbd 8077 c4bb
000002d0: 9048 99bc 9cc8 333d f266 d03d 6c02 c33d
000002e0: 740a 70bd 1616 ebbd 0071 4cbb b4bf 0fbd
000002f0: 8893 f53d 8401 163d 58ca 3cbd 14bd 063d
00000300: 0484 c6bd 3090 b6bd 887a 7c3d 8a6a b6bd
00000310: f492 e4bd b4ce 9e3d c694 ccbd a868 91bc
00000320: 30f8 78bd 50cb 78bd d0c9 1d3d 10db 8d3c
00000330: 1e8e e83d 18fc 8bbc 00fe 0b3b 2e11 ccbd
00000340: 6859 303d 1074 7dbc 50c9 bf3c 4cfe bcbd
00000350: 0a69 f3bd fc24 04bd 3016 50bc aa35 dbbd
00000360: c842 343d b8d1 c23c 30b8 babd cc3a 053d
00000370: 60bd e93c 482c 773d bc55 493d 58eb ac3d
00000380: a027 243c a0c1 aabc 2a3c f2bd 5eb9 d53d
00000390: 8a19 e73d 7473 223d 008a 343b ccb7 6bbd
000003a0: 463f cebd 7cd9 f83d 20dd fabd fce3 c43d
000003b0: 9c4f 593d d4e4 5ebd 325a e6bd 9cd0 553d
000003c0: f480 74bd c406 2fbd e41a d23d 0ae9 8dbd
000003d0: f081 4cbc 786e d33c 46c9 b6bd 4c9b 603d
000003e0: 8041 933b 8479 c4bd 203f f43c 24e8 ca3d
000003f0: e8fd 9d3c a8d7 8bbc 96ec e53d b0a8 9fbc

gru.weight_hh_l0 f4 [192, 64]
-0.07167123 0.11987874 0.102043465 -0.062210172 0.03641416 -0.068198785 0.083887815 0.06428476
0.06428647 -0.070797056 0.04786448 0.043595925 -0.07460545 -0.032638475 -0.029886693 -0.089236245
0.013361603 -0.033910647 0.06485474 0.00039447844 -0.07810657 0.12248355 0.01667282 -0.0458512
0.057853654 -0.12140623 0.0639009 -0.013115674 0.031858236 0.024937436 -0.09002802 -0.11337568
0.019461378 0.033129156 0.015139163 -0.094638616 -0.008306116 -0.072681576 -0.0036266893 0.06089136
-0.10076243 0.002086684 0.0644975 0.09382273 0.004710108 0.022105083 0.108251095 -0.114334404
0.06902605 -0.11009456 0.10825215 -0.054092243 0.07217103 -0.02851437 -0.114322856 0.098882616
0.037126496 -0.016968817 0.115420625 -0.04989721 -0.039217874 -0.030546382 0.11983396 0.03794335
-0.09374465 -0.022421792 -0.038151115 0.047243983 0.09958063 -0.067858756 0.047412455 -0.047391847
-0.05037123 0.06349917 -0.009044319 -0.018445462 -0.109311804 0.07954611 -0.0006391257 0.021122485
0.015863359 -0.025075346 0.041634053 -0.09643713 -0.025689855 0.123698086 0.08158687 0.0028206706
0.002184108 -0.029844597 0.094763264 0.04868339 -0.07348643 0.047502145 -0.08833347 0.10559662
0.0033386052 0.10855685 0.047007173 0.03533244 0.010816842 -0.09607108 -0.023532212 0.105371386
-0.11781031 0.1034275 0.055074766 -0.018765748 0.09573047 -0.06168832 -0.103301495 -0.01797916
-0.0040346384 0.031977236 -0.04206051 -0.07338223 -0.00030058622 -0.060866624 0.09267241 -0.015901819
0.055712536 -0.11318526 -0.051082656 0.062181354 -0.11478029 -0.120303035 0.022882283 -0.0089215785
-0.092480436 -0.036380544 0.11408971 -0.022703528 0.1233013 -0.09157519 -0.045613453 0.09416522
-0.02774258 -0.02312547 0.10549654 -0.052775294 -0.058814347 0.053157702 0.008055985 -0.054424018
-0.017725155 -0.014907047 0.004987359 -0.109711826 -0.009621397 0.0062851757 0.039298058 -0.028994054
-0.092662886 -0.07364516 -0.11716877 -0.08641721 0.003027469 0.07314162 -0.005623549 -0.0613963
-0.12037586 0.123948574 -0.11908822 0.055824876 -0.088606596 0.123239666 0.062111974 0.055021584
0.026510224 0.04011543 -0.062492013 -0.0700406 0.0649136 -0.0370218 -0.021215886 -0.062380195
-0.08782686 0.00037124753 -0.008063912 -0.09357272 -0.027497455 0.09148738 -0.0022828877 -0.081844345
-0.10233055 -0.11403169 -0.08387798 -0.08302136 0.01776345 0.008218408 0.016656667 0.049971804
0.06792311 0.04620348 -0.060163707 0.04169558 -0.022708312 0.09668818 -0.009975523 -0.008829042
-0.04033406 0.046546623 -0.009311199 -0.12402241 -0.018851444 -0.06963061 0.10532969 -0.05663672
-0.1010879 -0.029743135 0.076755956 0.10172829 0.10160357 0.04412374 -0.07236685 -0.05451013
-0.020468578 -0.04601109 0.08896868 -0.0022068322 -0.08841829 -0.07901816 0.08797471 -0.104752004
0.045661867 -0.108587235 -0.0943104 0.076794475 0.025052056 0.057038814 0.07573716 -0.034655586
-0.026115865 0.046908736 -0.039341286 0.07095303 0.05075203 0.10938726 0.0401728 0.069325164
0.03730561 0.10562277 0.042458534 -0.045514345 -0.014898911 0.07966171 0.07015419 0.090563476
0.0352017 0.111417234 0.072301194 0.12215346 -0.120795354 -0.006830439 -0.048681542 0.055163354
00000000: 5ec8 92bd fc82 f53d 2afc d03d 18d0 7ebd
00000010: 0427 153d ceab 8bbd 60cd ab3d baa7 833d
00000020: a0a8 833d 0cfe 90bd 8c0d 443d a491 323d
00000030: beca 98bd ecaf 05bd f0d4 f4bc 7ec1 b6bd
00000040: a0ea 5a3c e4e5 0abd 90d2 843d 00d2 ce39
00000050: 56f6 9fbd a8d8 fa3d 7095 883c 78ce 3bbd
00000060: f4f7 6c3d d4a3 f8bd 7ade 823d 20e3 56bc
00000070: c87d 023d 9849 cc3c 9c60 b8bd 8231 e8bd
00000080: 786d 9f3c 70b2 073d 400a 783c e4d1 c1bd
00000090: 6016 08bc 14da 94bd c0ad 6dbb 3869 793d
000000a0: 885c cebd c0c0 083b 4417 843d 2226 c03d
000000b0: 4057 9a3b b815 b53c c0b2 dd3d 2828 eabd
000000c0: 885d 8d3d 4279 e1bd 4eb3 dd3d d48f 5dbd
000000d0: 68ce 933d f896 e9bc 1a22 eabd f882 ca3d
000000e0: f411 183d 3002 8bbc a661 ec3d 0461 4cbd
000000f0: eca2 20bd 683c fabc 826b f53d 7c6a 1b3d
00000100: 32fd bfbd e8ad b7bc 5844 1cbd e882 413d
00000110: eef0 cb3d 88f9 8abd 9033 423d f41d 42bd
00000120: 1052 4ebd da0b 823d a02e 14bc f01a 97bc
00000130: dede dfbd 12e9 a23d 008b 27ba 1009 ad3c
00000140: e0f3 813c d06a cdbc 7888 2a3d d480 c5bd
00000150: 8873 d2bc 6c55 fd3d 0417 a73d 00db 383b
00000160: 4023 0f3b a87c f4bc 3e13 c23d 3c68 473d
00000170: 0e80 96bd 9c91 423d 2ee8 b4bd 0a43 d83d
00000180: 80cc 5a3b 0e53 de3d 988a 403d c0b8 103d
00000190: 2039 313c eac0 c4bd a0c6 c0bc f4cc d73d
000001a0: 8846 f1bd ccd1 d33d 1496 613d a0ba 99bc
000001b0: 560e c43d e4ac 7cbd bc8f d3bd 0849 93bc
000001c0: 0035 84bb 90fa 023d a447 2cbd 6c49 96bd
000001d0: 0098 9db9 484f 79bd 08cb bd3d 8844 82bc
000001e0: d432 643d accd e7bd 0c3c 51bd e0b1 7e3d
000001f0: ee11 ebbd 7061 f6bd a073 bb3c d02b 12bc
00000200: 6266 bdbd c403 15bd dea7 e93d c0fc b9bc
00000210: 6485 fc3d c68b bbbd 2cd5 3abd b2d9 c03d
00000220: 6844 e3bc a071 bdbc 920e d83d e82a 58bd
00000230: 50e7 70bd e4bb 593d 40fd 033c b8eb 5ebd
00000240: 5834 91bc b03c 74bc 006d a33b 98b0 e0bd
00000250: 10a3 1dbc e0f3 cd3b 00f7 203d f084 edbc
00000260: 0ac6 bdbd 46d3 96bd 2ef6 efbd 82fb b0bd
00000270: 8068 463b 46cb 953d c045 b8bb b07a 7bbd
00000280: 9e87 f6bd c0d8 fd3d 86e4 f3bd a0a8 643d
00000290: 6077 b5bd 1465 fc3d 2069 7e3d 505e 613d
000002a0: f82b d93c 1450 243d a0f7 7fbd 7271 8fbd
000002b0: 6cf1 843d 2ca4 17bd f0cc adbc 6082 7fbd
000002c0: 92de b3bd 00a4 c239 801e 04bc 0ea3 bfbd
000002d0: 5842 e1bc bc5d bb3d 809c 15bb 029e a7bd
000002e0: ae92 d1bd 7289 e9bd 38c8 abbd 1a07 aabd
000002f0: a884 913c 80a6 063c 9073 883c 3caf 4c3d
00000300: 461b 8b3d dc3f 3d3d 386e 76bd fcc8 2a3d
00000310: c806 babc 7404 c63d 6070 23bc b0a7 10bc
00000320: 5435 25bd aca7 3e3d 008e 18bc 76ff fdbd
00000330: 586e 9abc 7e9a 8ebd 18b7 d73d e8fb 67bd
00000340: 2c07 cfbd e0a7 f3bc 3a32 9d3d ec56 d03d
00000350: 8815 d03d 18bb 343d 1235 94bd 0446 5fbd
00000360: b8ad a7bc 2076 3cbd 3635 b63d 80a0 10bb
00000370: a614 b5bd 46d4 a1bd 162c b43d 3888 d6bd
00000380: f007 3b3d fc62 debd d025 c1bd 6c46 9d3d
00000390: f839 cd3c 88a1 693d 161c 9b3d 04f3 0dbd
000003a0: f0f0 d5bc 6023 403d 5424 21bd d24f 913d
000003b0: 5ce1 4f3d 6e06 e03d 3c8c 243d 5afa 8d3d
000003c0: c4cd 183d c050 d83d 00e9 2d3d 406d 3abd
000003d0: 901a 74bc ae25 a33d 00ad 8f3d 5879 b93d
000003e0: a82f 103d b82e e43d a612 943d 982b fa3d
000003f0: 8e63 f7bd e0d1 dfbb 4c66 47bd f8f2 613d

gru.bias_ih_l0 f4 [192]
0.07183641 0.075760454 0.053774357 0.060998455 -0.06146869 -0.08610757 0.064917535 -0.024432808
0.030849472 0.09810579 0.123734415 0.10818286 0.091352835 -0.09988317 0.11568546 -0.063545555
0.111627445 0.00943394 0.043703392 -0.07428369 -0.065354824 0.10720767 0.055488586 -0.012772873
-0.07323332 0.020507932 -0.099790365 0.02123247 0.021072373 0.09903228 -0.086057365 -0.108520746
-0.111891076 -0.12061806 0.10119392 0.08982308 0.107223555 0.10436845 -0.0065968186 0.041078568
0.11191295 0.019900948 -0.009311795 -0.11391468 0.10397436 0.051619813 0.059534326 -0.11599067
0.10066913 -0.108464345 0.008433208 0.06541231 -0.07459441 -0.036700383 -0.003169179 -0.013241634
0.0069109946 0.10015313 -0.030233786 -0.068538666 -0.036844745 -0.05008024 -0.0450823 -0.031247765
-0.07426745 0.06314002 -0.07650153 0.10608514 -0.0057046115 0.093886375 0.120262414 0.093218476
0.040853217 0.08937116 0.052129462 0.026863843 -0.060338885 -0.07337557 -0.08937162 0.032817572
0.07049702 0.12370403 0.10714863 -0.12037973 0.012532413 0.07338765 -0.032154545 -0.002372995
0.06702705 -0.082626596 0.042567924 0.022869214 0.09920153 -0.12173408 0.07267137 -0.009958103
-0.009270057 0.06824577 -0.09658918 0.08675395 0.034125134 -0.022506505 0.07754597 -0.10314272
-0.11936474 -0.12410703 0.10313295 0.07667315 -0.09848453 -0.0927926 -0.044695735 0.013254806
-0.10383868 0.048762605 0.06558031 -0.06008263 0.012049347 0.016566515 0.087626204 -0.004566774
0.01281181 -0.0904312 0.014779389 -0.03723459 0.029064298 -0.088061124 -0.10002801 -0.062699616
-0.047202557 0.054411188 -0.066097006 -0.10280201 0.036842704 -0.004238844 0.0071947426 -0.100781485
-0.008944958 -0.10949996 -0.038695946 0.11934361 0.023126125 -0.055851176 0.12426515 -0.023619518
-0.07224791 -0.044221938 0.11083561 -0.09914273 0.01970315 -0.013422564 -0.036785856 -0.11995904
-0.037353158 -0.0722706 -0.11336368 -0.006071165 0.1111729 0.113903254 0.10410029 -0.11896853
0.12084016 -0.047043264 -0.03377539 0.07830389 0.07710324 -0.033570826 0.01051946 0.051865593
-0.006486997 -0.06487557 -0.08929913 -0.010458186 0.092026964 -0.03646922 -0.038385823 -0.068222016
0.0407736 -0.06379183 0.07139239 -0.088773325 0.089143544 -0.03240584 -0.002433464 0.05159934
0.0041102767 0.07196784 -0.0129202455 0.028693482 -0.01779364 0.11065529 -0.06771627 -0.120227054
00000000: f81e 933d 4c28 9b3d 8042 5c3d 84d9 793d
00000010: 98c6 7bbd 2a59 b0bd 7cf3 843d 5027 c8bc
00000020: 08b8 fc3c b0eb c83d 7868 fd3d fa8e dd3d
00000030: 3217 bb3d 8c8f ccbd 80ec ec3d 2c24 82bd
00000040: ee9c e43d d090 1a3c 5402 333d 0c22 98bd
00000050: c0d8 85bd b28f db3d 0048 633d 5045 51bc
00000060: 5afb 95bd 4000 a83c e45e ccbd b8ef ad3c
00000070: f89f ac3c 70d1 ca3d d83e b0bd 2040 debd
00000080: 2627 e5bd 9a06 f7bd c23e cf3d 2af5 b73d
00000090: 0698 db3d 20bf d53d 202a d8bb 0042 283d
000000a0: 9e32 e53d 5007 a33c 8090 18bc 1a4c e9bd
000000b0: 82f0 d43d 4c6f 533d 44da 733d 848c edbd
000000c0: 9e2b ce3d 8e22 debd 702b 0a3c e4f6 853d
000000d0: f4c4 98bd 2453 16bd 00b2 4fbb 70f3 58bc
000000e0: a075 e23b 161d cd3d d8ac f7bc 005e 8cbd
000000f0: 84ea 16bd f020 4dbd 38a8 38bd 50fb ffbc
00000100: 8819 98bd 8e4f 813d d6ac 9cbd 2a43 d93d
00000110: c0ed babb 8047 c03d 244c f63d 54e9 be3d
00000120: b455 273d 3a08 b73d b485 553d 9011 dc3c
00000130: e825 77bd ee45 96bd 7808 b7bd b86b 063d
00000140: be60 903d 8a58 fd3d be70 db3d a689 f6bd
00000150: c054 4d3c 444c 963d 7cb4 03bd 4084 1bbb
00000160: 7a45 893d 2238 a9bd b45b 2e3d 3858 bb3c
00000170: 2c2a cb3d b84f f9bd bad4 943d 5027 23bc
00000180: 70e1 17bc 70c4 8b3d 8cd0 c5bd 0eac b13d
00000190: ccc6 0b3d 905f b8bc 6cd0 9e3d 7e3c d3bd
000001a0: 8075 f4bd d42b febd 5e37 d33d d006 9d3d
000001b0: 42b2 c9bd 0c0a bebd e012 37bd b02a 593c
000001c0: 60a9 d4bd 4cbb 473d f84e 863d 3419 76bd
000001d0: a06a 453c 80b6 873c 5e75 b33d e0a4 95bb
000001e0: a0e8 513c fe33 b9bd 4025 723c 4c83 18bd
000001f0: 4018 ee3c 6459 b4bd 7cdb ccbd a868 80bd
00000200: 7857 41bd 44de 5e3d de5d 87bd dc89 d2bd
00000210: 60e8 163d 00e6 8abb e0c1 eb3b 8666 cebd
00000220: e08d 12bc 8441 e0bd a47f 1ebd 6c6a f43d
00000230: 0073 bd3c 34c4 64bd ba7e fe3d b87d c1bc
00000240: b6f6 93bd 1022 35bd c8fd e23d 580b cbbd
00000250: 8068 a13c 50ea 5bbc c4ac 16bd 16ad f5bd
00000260: a0ff 18bd 9c02 94bd 382b e8bd a0f0 c6bb
00000270: 9eae e33d 1c46 e93d 8832 d53d c6a5 f3bd
00000280: 0c7b f73d 70b0 40bd 1058 0abd ca5d a03d
00000290: 4ee8 9d3d 9081 09bd d059 2c3c 0471 543d
000002a0: e090 d4bb 7cdd 84bd 76e2 b6bd d058 2bbc
000002b0: a278 bc3d c060 15bd 743a 1dbd fcb7 8bbd
000002c0: 3802 273d 4aa5 82bd 2c36 923d cace b5bd
000002d0: e490 b63d fcbb 04bd c07a 1fbb d459 533d
000002e0: 80af 863b e063 933d 70af 53bc 980e eb3c
000002f0: f8c3 91bc 3e9f e23d d4ae 8abd 9a39 f6bd

gru.bias_hh_l0 f4 [192]
-0.08312531 0.023196384 -0.08504331 -0.021146879 -0.097356856 -0.073177084 -0.005612299 -0.018624768
0.008580431 0.05104558 0.06936066 -0.033316344 0.027720198 -0.102720246 -0.1010821 0.004492432
-0.017942041 0.03258814 0.020435452 -0.10646294 -0.039067253 0.10183874 0.0075422227 0.063929185
-0.07191685 -0.08860609 0.11836299 0.021799222 0.006511271 0.106066585 -0.025061816 0.053457066
-0.06637564 -0.0137658715 -0.051798463 -0.08824518 0.06440711 0.099282086 -0.011275828 0.076392695
-0.034909233 -0.039061368 0.12251982 -0.0430803 -0.09827787 0.066506445 -0.089566946 0.06056945
-0.07945308 0.0922243 -0.094565034 0.07638678 -0.10563871 0.07516748 -0.012081578 -0.095761895
0.120472476 0.009607822 0.058986127 0.10326551 0.10442726 -0.04300241 -0.07422349 0.064924
-0.08779153 -0.11170973 -0.082518965 0.05020979 0.04040727 -0.08103672 0.0014717132 -0.12094939
0.11909111 0.035126984 -0.025111675 -0.06763868 0.060199738 0.123089954 0.008928582 0.05010332
-0.08822577 0.0426981 -0.124571905 0.076134965 -0.11239067 -0.10812752 -0.08327833 0.025745496
-0.017914087 0.05361019 0.124469444 -0.117630154 0.094718516 0.07619487 -0.12284021 0.11360593
0.10987477 -0.109216005 -0.1225172 0.085360065 0.08561236 0.09048423 0.02358763 -0.116767436
-0.04732357 -0.05878821 -0.003659919 0.08703673 0.102046624 0.103682026 0.006347403 -0.08672784
0.048705593 -0.12392829 -0.047942594 -0.09191544 -0.026832595 -0.02204357 0.055285245 -0.077760085
-0.12145266 -0.097462684 -0.12428154 0.121462345 0.09559068 -0.10623379 -0.06233993 -0.04813634
-0.03599876 -0.08697587 -0.085545465 0.060848534 -0.10073148 -0.1038288 -0.103553966 -0.023589581
-0.08088812 -0.10806455 0.029807493 -0.088587105 0.021938667 -0.086904645 -0.10907164 -0.05655682
-0.022180855 0.1166987 0.08185278 -0.026977688 -0.11320341 0.11632861 -0.08085337 0.08438668
0.025420398 -0.08020516 0.06453197 -0.09427592 0.105745465 0.03597626 0.07627693 -0.043826044
-0.11244923 -0.033670858 -0.076573655 -0.10998733 0.0067447275 -0.02886337 -0.115760535 -0.07989769
-0.065499306 -0.0074421316 0.076453164 -0.0016999096 0.086634144 0.07581402 0.019383132 -0.037376255
-0.019557148 0.100581795 -0.03482017 -0.05949174 0.0574788 -0.0815973 0.074913695 -0.07441205
-0.053349838 0.034408852 -0.100864604 -0.06296642 -0.04420662 0.12072031 0.066624805 0.10426481
00000000: 9a3d aabd 5806 be3c 302b aebd 383c adbc
00000010: 0863 c7bd dedd 95bd 60e7 b7bb f892 98bc
00000020: f094 0c3c 2c15 513d f60c 8e3d b876 08bd
00000030: 7815 e33c fe5e d2bd 2204 cfbd 4035 933b
00000040: 30fb 92bc 247b 053d 4068 a73c 3e09 dabd
00000050: fc04 20bd d490 d03d c024 f73b 4eed 823d
00000060: 2449 93bd 1c77 b5bd 4c68 f23d 4894 b23c
00000070: 805c d53b 7039 d93d 704e cdbc ccf5 5a3d
00000080: f4ef 87bd 408a 61bc a02a 54bd e4b9 b4bd
00000090: e0e7 833d 6854 cb3d 40be 38bc c673 9c3d
000000a0: fcfc 0ebd d0fe 1fbd aceb fa3d f874 30bd
000000b0: e845 c9bd 8834 883d e06e b7bd ac17 783d
000000c0: 4cb8 a2bd 18e0 bc3d 50ab c1bd ac70 9c3d
000000d0: 1c59 d8bd 68f1 993d d0f1 45bc d01e c4bd
000000e0: 46ba f63d 206a 1d3c 709b 713d de7c d33d
000000f0: f6dd d53d 4c23 30bd 7c02 98bd e0f6 843d
00000100: 0ccc b3bd 12c8 e4bd b4ff a8bd c8a8 4d3d
00000110: 1882 253d 94f6 a5bd 80e6 c03a 50b4 f7bd
00000120: 0ae6 f33d 50e1 0f3d 00b7 cdbc 2686 8abd
00000130: 0094 763d 9616 fc3d 3049 123c 2439 4d3d
00000140: b6af b4bd 34e4 2e3d 8e1f ffbd a6ec 9b3d
00000150: 142d e6bd f671 ddbd d48d aabd 38e8 d23c
00000160: 90c0 92bc 5c96 5b3d d6e9 fe3d 14e8 f0bd
00000170: c8fb c13d 0e0c 9c3d a693 fbbd 3aaa e83d
00000180: 0606 e13d a4ac dfbd 4cea fabd 42d1 ae3d
00000190: 8855 af3d cc4f b93d d83a c13c c423 efbd
000001a0: 5cd6 41bd e8cb 70bd 40db 6fbb 5040 b23d
000001b0: d2fd d03d 3e57 d43d e0fd cf3b 5e9e b1bd
000001c0: 847f 473d 1ece fdbd 745f 44bd 2a3e bcbd
000001d0: 08d0 dbbc b894 b4bc c872 623d ae40 9fbd
000001e0: 2cbc f8bd 849a c7bd 5287 febd 40c1 f83d
000001f0: 0cc5 c33d 1a91 d9bd 2858 7fbd 9c2a 45bd
00000200: 7073 13bd 6820 b2bd 7632 afbd 503c 793d
00000210: 4e4c cebd 32a4 d4bd 1a14 d4bd f03e c1bc
00000220: aca8 a5bd f250 ddbd d82e f43c 286d b5bd
00000230: b8b8 b33c 10fb b1bd f460 dfbd 20a8 67bd
00000240: a0b4 b5bc baff ee3d 6ea2 a73d 5000 ddbc
00000250: 30d7 e7bd b23d ee3d 7496 a5bd ecd2 ac3d
00000260: 703e d03c 9a42 a4bd 5629 843d bc13 c1bd
00000270: 1491 d83d d85b 133d 1437 9c3d f082 33bd
00000280: c84b e6bd 74ea 09bd a6d2 9cbd 0a41 e1bd
00000290: e002 dd3b e072 ecbc dc13 edbd 66a1 a3bd
000002a0: 8024 86bd 20dd f3bb 7a93 9c3d 80cf deba
000002b0: 3e6d b13d 6244 9b3d 60c9 9e3c d817 19bd
000002c0: 5036 a0bc d4fd cd3d 989f 0ebd 9cad 73bd
000002d0: e46e 6b3d 7c1c a7bd 5a6c 993d 5865 98bd
000002e0: 5c85 5abd 4cf0 0c3d 1a92 cebd 8af4 80bd
000002f0: 0012 35bd 363c f73d 9672 883d ca88 d53d

gru.weight_ih_l1 f4 [192, 64]
-0.028896764 -0.11559142 0.060474038 -0.049911886 0.0070928335 0.08782287 0.11487234 -0.045195013
-0.103522986 -0.006641209 -0.059018344 -0.062119156 -0.03373833 0.098125145 0.07004394 -0.10819925
-0.10067913 0.09320077 -0.051396936 -0.0011988282 0.0003786385 -0.03697127 -0.0054190755 0.06337628
0.036506996 0.11734873 0.012382165 -0.020558253 0.026407465 -0.11136256 -0.119318366 -0.0030649602
0.08506283 -0.04085274 0.07738133 -0.11075702 0.040822104 0.10158415 0.08896729 -0.115842536
-0.07002573 0.010589257 -0.08976804 -0.12220153 0.03807071 -0.099657774 -0.036738425 -0.11628437
-0.03258322 0.08410956 -0.060109615 0.111360565 0.11942096 0.08773494 0.0009005219 0.03900525
-0.12178883 0.10216072 -0.005550444 0.11777216 0.0044202358 0.037333414 0.038400322 -0.11630978
0.064645916 0.09449865 0.012049049 0.108084336 -0.09614557 0.12067518 -0.044795662 0.0069188923
-0.12153238 -0.09128146 0.03423409 0.080858454 0.11840047 -0.0745146 0.10488975 -0.112509936
0.056988105 -0.046214893 -0.071413085 -0.029711843 0.026407227 -0.06528446 -0.004302174 -0.06608085
0.106197745 0.05206348 0.08057009 0.11409977 -0.09485793 -0.11446972 0.08603343 -0.044745907
-0.014843777 0.09812626 -0.087752864 -0.08037771 0.044558614 0.03819412 -0.11840412 0.014551967
0.10725795 0.08943021 0.10041171 -0.01337105 -0.066407666 -0.10137057 -0.10484403 0.05741167
-0.036921382 -0.004213631 -0.118335366 -0.12111737 -0.11013581 -0.03477718 -0.007320717 -0.03158042
0.055971816 -0.06632684 -0.027730048 0.07291798 0.072656035 0.05938272 -0.037503064 0.1150617
-0.008586705 0.10353285 -0.051643476 0.09936732 0.07228686 0.12011553 -0.05997497 -0.09473178
-0.12170011 0.007539183 -0.06428824 0.037010223 -0.015461817 0.08191168 0.041573465 -0.07957515
0.07806848 -0.07017048 0.09272778 0.069491014 0.11985411 -0.012170166 -0.07649167 -0.07650331
0.11417733 -0.107541144 0.045077115 0.026524529 0.113963276 0.049828276 0.031793535 -0.08840892
-0.0071597695 -0.055426538 -0.07657771 0.067132205 -0.025802359 0.11455077 0.068397895 -0.008934319
0.09678522 -0.06477974 -0.02979125 0.039463893 -0.09715292 -0.09544085 -0.08106288 0.0012064278
0.055796653 0.055758864 -0.11030951 0.0023186803 0.106397316 -0.05239147 -0.01633495 -0.11277868
-0.11790578 0.0711782 0.11661348 0.09994857 0.041055173 0.05038801 -0.117310345 0.017345816
0.088320374 0.07273926 0.097220704 0.10880004 0.019671172 -0.043931887 -0.11505352 0.118821606
0.04090914 0.074885815 -0.078870386 -0.07293968 0.100932136 0.012951121 0.04512918 -0.07216875
-0.0032215118 0.061235487 -0.048154324 0.0466398 -0.0963361 0.10742223 -0.046713725 0.040744096
-0.019651115 -0.011481658 0.096273184 -0.065860644 -0.06236191 -0.01391089 0.026526943 -0.046173394
-0.026730955 0.107653394 -0.041093215 -0.119127825 0.10328221 -0.07777025 0.092108876 0.028255895
0.11706075 -0.0059603006 0.099922016 -0.0656081 0.023893595 0.016503856 -0.07638061 -0.030403689
0.04129164 0.059654728 -0.12234263 0.09162639 -0.106097504 0.11819817 0.030233428 0.0014508963
-0.117266744 -0.0025432706 -0.027857482 -0.07313661 -0.050501853 -0.012803435 0.06559166 0.03365141
00000000: e8b8 ecbc 32bb ecbd a0b3 773d 6870 4cbd
00000010: 006b e83b 7adc b33d 3042 eb3d 681e 39bd
00000020: dc03 d4bd 809e d9bb 38bd 71bd a870 7ebd
00000030: 3431 0abd d6f5 c83d 3273 8f3d 9297 ddbd
00000040: dc30 cebd 0ce0 be3d 9885 52bd 0022 9dba
00000050: 0084 c639 306f 17bd 8092 b1bb 6ccb 813d
00000060: 5c88 153d 8854 f03d 90de 4a3c c869 a8bc
00000070: 7854 d83c 0e12 e4bd 305d f4bd 80dd 48bb
00000080: 6c35 ae3d 3455 27bd 1a7a 9e3d 94d4 e2bd
00000090: 1435 273d 5a0b d03d 7c34 b63d da3e edbd
000000a0: a669 8fbd 907e 2d3c 4ed8 b7bd cc44 fabd
000000b0: 08f0 1b3d 6019 ccbd 087b 16bd 8026 eebd
000000c0: fc75 05bd a241 ac3d 8035 76bd 0211 e43d
000000d0: fa92 f43d 60ae b33d 0011 6c3a f8c3 1f3d
000000e0: 6c6c f9bd a439 d13d 80e0 b5bb 8832 f13d
000000f0: a0d7 903b ecea 183d a849 1d3d d233 eebd
00000100: 1465 843d 8288 c13d 6069 453c 525b dd3d
00000110: f8e7 c4bd 8c24 f73d a87b 37bd e0b7 e23b
00000120: f8e5 f8bd c6f1 babd 0c39 0c3d 1e99 a53d
00000130: f27b f23d 1c9b 98bd 70d0 d63d 9c6b e6bd
00000140: 5c6c 693d d44b 3dbd 0641 92bd 4066 f3bc
00000150: f853 d83c dcb3 85bd 40f9 8cbb 6655 87bd
00000160: 347e d93d 8440 553d ee01 a53d 24ad e93d
00000170: e044 c2bd 1a6f eabd 4c32 b03d 7c47 37bd
00000180: 5033 73bc 6cf6 c83d c6b7 b3bd 129d a4bd
00000190: 1883 363d 7071 1c3d dc7d f2bd 606b 6e3c
000001a0: 0eaa db3d 3027 b73d a8a4 cd3d 4012 5bbc
000001b0: be00 88bd 609b cfbd 78b8 d6bd 8028 6b3d
000001c0: e03a 17bd 8012 8abb d059 f2bd 620c f8bd
000001d0: e28e e1bd 8472 0ebd a0e2 efbb 785a 01bd
000001e0: b442 653d 5ed6 87bd 202a e3bc 0656 953d
000001f0: b0cc 943d 4c3b 733d d09c 19bd 78a5 eb3d
00000200: 40af 0cbc 0809 d43d 1c88 53bd 1881 cb3d
00000210: 220b 943d 22ff f53d 50a8 75bd bc02 c2bd
00000220: e83d f9bd 400b f73b 8ea9 83bd 0898 173d
00000230: 9053 7dbc 50c1 a73d f048 2a3d 4cf8 a2bd
00000240: 5ee2 9f3d 8ab5 8fbd 10e8 bd3d 4e51 8e3d
00000250: 1276 f53d 6065 47bc aaa7 9cbd c4ad 9cbd
00000260: ced5 e93d 883e dcbd c8a2 383d f849 d93c
00000270: 9465 e93d bc18 4c3d f039 023d bc0f b5bd
00000280: 809c eabb f006 63bd c6d4 9cbd 9c7c 893d
00000290: 785f d3bc 9899 ea3d 3214 8c3d 4061 12bc
000002a0: 5437 c63d 3eab 84bd c80c f4bc e4a4 213d
000002b0: 1cf8 c6bd 7e76 c3bd 4c04 a6bd 0021 9e3a
000002c0: 088b 643d 6863 643d f4e9 e1bd 00f5 173b
000002d0: d6e6 d93d 7098 56bd e0d0 85bc 82f8 e6bd
000002e0: 9678 f1bd e0c5 913d 0cd3 ee3d d6b1 cc3d
000002f0: 7829 283d a863 4e3d 6840 f0bd d018 8e3c
00000300: 50e1 b43d 52f8 943d a61b c73d 8ed2 de3d
00000310: 7025 a13c ecf1 33bd 2ea1 ebbd be58 f33d
00000320: 5890 273d bc5d 993d cc86 a1bd 6661 95bd
00000330: 82b5 ce3d f030 543c 60d9 383d 36cd 93bd
00000340: 0020 53bb 10d2 7a3d 783d 45bd 6009 3f3d
00000350: dc4b c5bd 3000 dc3d e456 3fbd 48e3 263d
00000360: 60fb a0bc 901d 3cbc e02a c53d f2e1 86bd
00000370: 346f 7fbd 80ea 63bc 084f d93c 5020 3dbd
00000380: e0fa dabc 6279 dc3d 5c51 28bd 4af9 f3bd
00000390: a085 d33d 0246 9fbd 94a3 bc3d e878 e73c
000003a0: 8cbd ef3d a04e c3bb eaa3 cc3d 8a5d 86bd
000003b0: 80bc c33c 1833 873c 706d 9cbd 2811 f9bc
000003c0: 6c21 293d 8458 743d c68e fabd 9ea6 bb3d
000003d0: a649 d9bd e211 f23d 18ac f73c 002c be3a
000003e0: 8c29 f0bd 00ad 26bb 6035 e4bc a6c8 95bd
000003f0: 08db 4ebd 80c5 51bc ec54 863d 10d6 093d

gru.weight_hh_l1 f4 [192, 64]
-0.058980957 0.08203702 -0.11247316 -0.027089164 0.029235959 0.0049978346 0.05468765 0.049898118
-0.11166094 0.03301908 0.12077357 0.11831114 0.08848277 0.06434989 -0.028142795 0.08677335
-0.10892652 0.1037956 0.122522205 -0.073188245 0.112047926 0.09907475 -0.11598328 0.087298155
-0.00028060377 -0.12162353 0.05273235 -0.08558042 0.070028454 -0.00044932961 -0.0402568 0.058980733
-0.019258514 0.119336054 0.10561736 0.044058964 0.05919297 -0.017425522 -0.020389855 -0.096359566
-0.045480862 -0.11184445 0.074548244 -0.0805898 -0.008101344 0.031134605 -0.05104299 -0.114871755
-0.11988293 0.08265145 -0.11620332 0.11651574 -0.114957586 0.026383102 -0.11613767 -0.09448953
-0.019329578 0.056793526 -0.07269405 0.11304562 0.11145781 0.11211562 -0.103777036 0.041209638
-0.11579056 -0.086763024 0.019171342 -0.0662484 0.123425975 -0.07497352 0.015406385 0.10386631
-0.029882029 0.060863763 -0.09900442 0.091402456 0.005735576 0.063328296 -0.013104469 -0.06430577
-0.07266581 -0.014998004 0.115979984 0.09911612 -0.094901845 0.045150653 0.037680015 -0.06678799
-0.020518541 0.103602394 0.1143111 0.0885302 0.037898585 -0.077450976 0.06465386 -0.0052814186
0.121222004 0.093661964 -0.0037566572 0.11215487 0.09897025 0.10102305 -0.0023091882 -0.0075585246
0.10729273 0.095195025 0.07803421 0.11613876 -0.115374714 -0.015296087 0.060578346 0.0035328716
0.037624285 0.06940918 0.025129676 0.024998486 -0.10863271 -0.076624244 0.012659028 -0.11257465
-0.029691532 0.098940045 -0.069660336 0.123159975 -0.0003028065 -0.001053825 0.03269787 0.053513065
-0.1198792 0.086225554 0.01645732 -0.07348795 0.04048857 -0.10712814 -0.034066156 0.111206755
-0.08575335 0.036538735 -0.030513003 -0.06132455 0.0046761036 -0.07379392 -0.00032927096 0.011086717
0.124091595 0.039350882 -0.10611269 0.060909435 0.0038685799 -0.1109934 0.0755447 0.103805274
0.121262774 -0.0018948466 0.1061631 0.051668763 0.092440784 0.06358254 0.012571156 -0.11939593
-0.0346864 0.06934759 0.031628385 0.01702489 0.066790745 -0.10226388 0.057283744 -0.033095866
0.09130831 -0.031339467 0.08793047 -0.05344422 0.024764389 0.0010156482 0.06779562 0.04643354
0.0844166 -0.08696148 0.117479816 -0.08368786 -0.11145499 0.09109813 -0.08368565 0.025322855
0.01661788 0.10182014 -0.07264289 0.08290276 0.04101105 -0.10843933 -0.04293835 0.08960804
-0.09215918 -0.10538545 -0.07320319 -0.09852509 0.117044196 -0.088994905 0.08636962 0.08982332
0.110222176 -0.050408512 -0.11878075 -0.02863057 0.016232774 -0.11306676 -0.09841162 0.029856935
0.047768697 -0.0044362694 -0.045772374 0.083141014 0.11131351 -0.053480476 0.032038346 -0.08428785
0.079135746 -0.0009018034 0.0391497 -0.054995283 0.06961897 -0.05764027 0.014368355 0.10362364
0.098389775 -0.118904084 -0.03948152 0.060312495 -0.09718333 0.03904873 0.039352536 0.12210333
-0.096599594 0.10275644 0.07570411 0.074266925 0.019571513 0.00381428 0.032744423 -0.12089838
-0.09795605 0.060961425 -0.011495456 0.09716909 0.05620323 -0.119689554 0.11839487 0.043774024
-0.008273378 -0.063635364 -0.06266801 0.055773795 -0.10718052 0.09697516 -0.0834644 0.05799678
00000000: 0496 71bd 0603 a83d 5458 e6bd 18ea ddbc
00000010: 4080 ef3c e0c4 a33b 2800 603d f861 4c3d
00000020: 7eae e4bd 043f 073d 2258 f73d 1c4d f23d
00000030: 7436 b53d e0c9 833d b88b e6bc 3ab6 b13d
00000040: de14 dfbd ca92 d43d ecec fa3d b8e3 95bd
00000050: 6279 e53d b4e7 ca3d a488 edbd 60c9 b23d
00000060: 001e 93b9 c215 f9bd e0fd 573d ca44 afbd
00000070: 146b 8f3d 0094 ebb9 50e4 24bd c895 713d
00000080: 08c4 9dbc 7666 f43d ea4d d83d 2c77 343d
00000090: 5474 723d f8bf 8ebc a008 a7bc 2a58 c5bd
000000a0: 244a 3abd b40e e5bd c0ac 983d 440c a5bd
000000b0: 80bb 04bc 000e ff3c 7412 51bd e241 ebbd
000000c0: 2e85 f5bd 2a45 a93d 02fc edbd ce9f ee3d
000000d0: e26e ebbd 6021 d83c 96d9 edbd ba83 c1bd
000000e0: 1059 9ebc 54a0 683d 9ee0 94bd 7684 e73d
000000f0: fe43 e43d e09c e53d 0e89 d4bd 70cb 283d
00000100: 9a23 edbd d0b0 b1bd 380d 9d3c 3ead 87bd
00000110: c2c6 fc3d b88b 99bd 106b 7c3c dcb7 d43d
00000120: 28cb f4bc 484c 793d d4c2 cabd 3631 bb3d
00000130: 80f1 bb3b 44b2 813d 20b4 56bc beb2 83bd
00000140: d0d1 94bd 30ba 75bc ea86 ed3d 64fd ca3d
00000150: e65b c2bd e4ef 383d 5c56 1a3d 24c8 88bd
00000160: 8016 a8bc 7e2d d43d f01b ea3d 524f b53d
00000170: 8c3b 1b3d 9e9e 9ebd 3e69 843d c00f adbb
00000180: 3e43 f83d d8d1 bf3d 4032 76bb 74b1 e53d
00000190: eab0 ca3d 2ce5 ce3d c055 17bb 80ad f7bb
000001a0: 4abc db3d 9cf5 c23d 66d0 9f3d 28da ed3d
000001b0: 9449 ecbd 709c 7abc 0021 783d c087 673b
000001c0: ec1b 1a3d 6626 8e3d c0dc cd3c a0c9 cc3c
000001d0: d47a debd 2ced 9cbd d067 4f3c 8a8d e6bd
000001e0: a83b f3bc 14a1 ca3d 14aa 8ebd 4c3b fc3d
000001f0: 00c2 9eb9 8020 8aba 34ee 053d 8430 5b3d
00000200: 3a83 f5bd 0697 b03d 80d1 863c da80 96bd
00000210: 58d7 253d 0066 dbbd f488 0bbd 5ec0 e33d
00000220: 749f afbd a4a9 153d 68f6 f9bc 742f 7bbd
00000230: 003a 993b 4421 97bd 00a2 acb9 10a5 353c
00000240: bc23 fe3d 642e 213d 9c51 d9bd 2c7c 793d
00000250: 0088 7d3b 8250 e3bd 2eb7 9a3d dc97 d43d
00000260: 9e58 f83d 805c f8ba 0a6c d93d a0a2 533d
00000270: 9851 bd3d 9037 823d 40f7 4d3c da85 f4bd
00000280: 5413 0ebd 1c06 8e3d c48c 013d c877 8b3c
00000290: 96c9 883d ba6f d1bd 5ca2 6a3d 888f 07bd
000002a0: daff ba3d d05d 00bd e414 b43d 54e8 5abd
000002b0: b0de ca3c 801f 853a 6ed8 8a3d 1831 3e3d
000002c0: 9ce2 ac3d dc18 b2bd 4299 f03d 8a64 abbd
000002d0: 8442 e4bd a891 ba3d 6263 abbd e071 cf3c
000002e0: 3822 883c 1487 d03d ccc5 94bd ecc8 a93d
000002f0: 34fb 273d 7015 debd 20e0 2fbd 6c84 b73d
00000300: f4bd bcbd 54d4 d7bd 8eeb 95bd 86c7 c9bd
00000310: deb4 ef3d f642 b6bd 8ee2 b03d 4af5 b73d
00000320: 2abc e13d 2879 4ebd 5243 f3bd a88a eabc
00000330: 98fa 843c 8c8f e7bd 088c c9bd 8896 f43c
00000340: 1ca9 433d 205e 91bb d07b 3bbd d645 aa3d
00000350: 56f8 e33d 580e 5bbd a43a 033d 1c9f acbd
00000360: ec11 a23d 0067 6cba 705b 203d bc42 61bd
00000370: 6494 8e3d 3418 6cbd 4069 6b3c a238 d43d
00000380: 9480 c93d fc83 f3bd 60b7 21bd 3c0a 773d
00000390: 0e08 c7bd 90f1 1f3d 2030 213d 5011 fa3d
000003a0: 02d6 c5bd f871 d23d c20a 9b3d 4219 983d
000003b0: 7054 a03c 00f9 793b 041f 063d 9299 f7bd
000003c0: 2e9d c8bd b0b2 793d 7057 3cbc 9600 c73d
000003d0: 5c35 663d cc1f f5bd 0279 f23d 644c 333d
000003e0: 108d 07bc 4253 82bd 1658 80bd 1073 643d
000003f0: 7681 dbbd ea9a c63d 62ef aabd 088e 6d3d

gru.bias_ih_l1 f4 [192]
0.050608203 0.0816208 0.016667292 0.11038944 0.097471654 0.04340914 -0.084330425 0.09323752
0.015073717 -0.104842365 0.07137999 -0.04104428 0.09665327 -0.04951489 -0.12336846 0.107970476
-0.09991871 -0.011607543 0.06477134 0.08134411 0.035911784 -0.09647189 0.106148034 -0.007515341
-0.01569651 0.07777983 -0.052606583 -0.11332248 0.10248183 -0.10579485 -0.032351464 -0.036784887
-0.038182244 -0.120531455 0.0040122867 0.019770324 0.03750938 -0.08487363 -0.016599461 0.08844939
-0.015546516 -0.01343295 -0.11948706 0.112132564 -0.0076065212 0.116246924 0.10274111 0.11404158
0.10580166 0.050946206 0.073175 -0.038784906 0.10107207 0.10572104 -0.09683168 0.10174234
0.013125896 -0.024704665 0.028717875 -0.11332923 -0.11442229 0.10403097 0.01617466 0.044860497
0.0731623 -0.10262829 -0.053052038 0.04947877 0.010434836 0.042121813 0.11505249 -0.07816401
0.03625582 0.08252224 -0.051109627 -0.021649197 -0.11241168 0.059407577 -0.0031937808 0.015903711
-0.004057318 -0.033412263 0.04396899 -0.049244463 0.021065101 -0.089553654 -0.03617136 0.06174077
0.09145516 0.05569437 0.049502745 -0.05876763 0.027048692 0.10721427 -0.014893502 0.06336895
-0.034983605 -0.117696255 0.026653796 0.03312607 0.06461249 0.09554124 -0.033422828 0.0046198964
0.10899921 0.048270285 0.075911894 -0.07203859 0.106230065 -0.08513194 -0.050506398 -0.061867356
0.052560538 -0.035936445 -0.021095052 0.09782581 -0.11083634 0.003777191 0.07213354 -0.07735105
0.09710853 -0.05898513 -0.009012371 0.032940015 -0.06775543 -0.08139096 -0.049690604 -0.029055491
-0.043923005 -0.07816306 0.0051080883 -0.044671312 0.043464318 0.095723435 0.10990575 0.12083946
0.05927269 0.05816856 -0.0004556626 -0.09913333 -0.050333336 0.013828024 -0.0014840215 0.051871926
0.1231613 -0.06314492 0.097322315 0.034281343 -0.105737254 -0.07474251 0.014155865 0.10750617
-0.07543008 -0.049783513 -0.04103543 -0.017389625 0.1182524 -0.048801273 0.024364263 -0.08356999
0.010774955 -0.11726911 -0.029415369 -0.027191773 0.048973635 -0.017549902 -0.024575233 -0.10449369
-0.09990105 -0.013926491 -0.059603795 -0.0075182617 -0.019995615 -0.087819204 0.10344271 0.010628283
0.017042845 -0.060316637 0.04642336 -0.10249281 -0.020421878 -0.015743747 -0.020609275 -0.005109608
-0.06279127 0.03357789 -0.03537248 -0.06840427 -0.107846215 -0.064973295 0.00778611 -0.08325912
00000000: 8c4a 4f3d ce28 a73d d889 883c dc13 e23d
00000010: 389f c73d c8cd 313d 6eb5 acbd 50f3 be3d
00000020: c0f7 763c 98b7 d6bd ac2f 923d 0c1e 28bd
00000030: 26f2 c53d 20d0 4abd 9aa8 fcbd a01f dd3d
00000040: 2ea2 ccbd 902d 3ebc d6a6 843d be97 a63d
00000050: 3c18 133d 0e93 c5bd 2464 d93d 4043 f6bb
00000060: f895 80bc 084b 9f3d 007a 57bd 9e15 e8bd
00000070: fee1 d13d f8aa d8bd f882 04bd c0ab 16bd
00000080: fc64 1cbd 32d9 f6bd 8079 833b 60f5 a13c
00000090: 70a3 193d 3ad2 adbd 98fb 87bc f424 b53d
000000a0: d0b6 7ebc e015 5cbc a2b5 f4bd c2a5 e53d
000000b0: 2040 f9bb de12 ee3d ee69 d23d a28e e93d
000000c0: 8aae d83d f8ac 503d c6dc 953d ecdc 1ebd
000000d0: e0fe ce3d 4684 d83d b04f c6bd 4a5e d03d
000000e0: 000e 573c 7061 cabc c041 eb3c 2819 e8bd
000000f0: 3c56 eabd 300e d53d b880 843c a4bf 373d
00000100: 1ed6 953d c82e d2bd 184d 59bd 40aa 4a3d
00000110: e0f6 2a3c ec87 2c3d a4a0 eb3d 7414 a0bd
00000120: fc80 143d 6c01 a93d 5458 51bd a859 b1bc
00000130: 1838 e6bd 5c55 733d c04e 51bb 8048 823c
00000140: 40f3 84bb 4cdb 08bd d418 343d 90b4 49bd
00000150: b890 ac3c e867 b7bd 6c28 14bd e4e3 7c3d
00000160: d84c bb3d c81f 643d 64c3 4a3d 54b6 70bd
00000170: 3895 dd3c 2893 db3d e003 74bc 94c7 813d
00000180: f84a 0fbd bc0a f1bd 1059 da3c 34af 073d
00000190: 8e53 843d 20ab c33d 60e6 08bd 8062 973b
000001a0: fa3a df3d 10b7 453d b277 9b3d f888 93bd
000001b0: 268f d93d a859 aebd ccdf 4ebd a068 7dbd
000001c0: b849 573d 1832 13bd 88cf acbc e658 c83d
000001d0: 2afe e2bd c08a 773b c0ba 933d 3a6a 9ebd
000001e0: d6e0 c63d 649a 71bd a0a8 13bc 1cec 063d
000001f0: 5cc3 8abd 4eb0 a6bd 6088 4bbd c805 eebc
00000200: 9ce8 33bd f413 a0bd c061 a73b 44f9 36bd
00000210: a407 323d a60a c43d 4416 e13d ae7a f73d
00000220: ecc7 723d 2842 6e3d 00e6 eeb9 6a06 cbbd
00000230: 542a 4ebd f08e 623c 8083 c2ba a877 543d
00000240: fe3b fc3d 2052 81bd ec50 c73d 986a 0c3d
00000250: c68c d8bd 9a12 99bd 00ee 673c 322c dc3d
00000260: 167b 9abd cce9 4bbd c414 28bd b074 8ebc
00000270: 502e f23d d8e3 47bd 9097 c73c be26 abbd
00000280: 7089 303c ca2a f0bd 80f8 f0bc 48c1 debc
00000290: 9498 483d d0c4 8fbc 0052 c9bc ca00 d6bd
000002a0: ec98 ccbd f02b 64bc 1c23 74bd c05b f6bb
000002b0: d8cd a3bc 8eda b3bd c6d9 d33d 4022 2e3c
000002c0: 709d 8b3c 940e 77bd 6c26 3e3d c0e7 d1bd
000002d0: c84b a7bc 08f9 80bc c8d4 a8bc 806e a7bb
000002e0: b698 80bd f888 093d bce2 10bd 8a17 8cbd
000002f0: 7ade dcbd b810 85bd a022 ff3b c283 aabd

gru.bias_hh_l1 f4 [192]
0.08974703 -0.013516575 -0.061595455 0.09013727 0.0770645 0.057715505 -0.06154163 0.05639097
-0.069612876 0.12026198 -0.070571244 -0.0849314 -0.11679532 -0.0727614 0.08719483 -0.016748607
-0.042094573 0.11663878 0.0443964 -0.04645154 0.105263665 -0.117740184 0.105565235 -0.1150676
0.07336515 -0.08118448 0.052553058 0.09115285 0.07630482 -0.040369257 0.07485095 -0.10826309
-0.08110723 -0.08320193 0.012911558 0.048197895 0.12121269 0.10507853 0.015038729 -0.050546348
0.02277419 -0.040925324 -0.07206458 -0.01455301 0.08079071 0.110198945 -0.11623877 -0.080133855
0.015183732 0.054275095 0.12267344 -0.048256993 0.066871405 -0.046136275 0.027940676 0.111488074
-0.09013659 -0.033851236 -0.021070287 -0.04813841 -0.065064475 -0.043847024 -0.022929817 0.044655517
-0.06320304 -0.05238594 -0.03220357 0.035539106 0.028298408 -0.116785154 0.012989864 -0.0070690364
0.018938065 0.017811507 0.037905425 0.0678996 -0.086417764 -0.018779904 -0.10906106 -0.04609102
-0.0012618452 0.12464593 -0.11659762 -0.029528871 -0.100173935 -0.07192741 0.01694493 0.07977252
-0.09134439 0.096338585 0.01490958 -0.09472348 0.12312548 0.116885185 -0.08262372 -0.0073541403
0.11918406 -0.002435699 -0.119034186 -0.09086484 0.111603096 -0.021720663 0.08412239 -0.018859923
-0.057803616 -0.09406912 0.08944216 0.10712208 0.02134335 -0.026035696 -0.049289614 0.10922812
-0.06796326 0.00461407 -0.09360716 -0.028130516 -0.12260981 -0.017207235 -0.012497917 -0.038713515
0.044849306 0.005268678 0.08502886 -0.056277633 -0.03090024 0.041228175 -0.086151496 0.115642056
0.07602288 0.061255574 0.00396654 -0.03584832 -0.011443019 0.1015771 0.02183263 -0.09920858
-0.023943827 0.059871003 0.11450139 -0.062722206 0.08310704 -0.084533125 -0.050526515 -0.092171
-0.080005616 -0.048299134 0.10465515 0.11660205 0.02732876 0.06710191 -0.03326918 0.09856306
-0.08713062 0.034753263 0.055291563 0.0064931065 0.08562864 0.021178395 -0.0019041896 -0.03482358
0.018408433 -0.026923 -0.097135454 0.12119521 -0.08338505 0.108484805 0.036770523 -0.0017475635
-0.04272136 0.09231089 -0.06200351 0.099739015 0.061378255 0.11871883 0.035334244 0.08326498
-0.025627568 0.11219117 -0.118194535 0.06515743 0.055740952 0.06810127 -0.09409152 -0.023780882
0.11521512 0.034582928 -0.038162977 0.074324846 -0.0356635 -0.06323208 0.10428582 0.10316719
00000000: 4acd b73d a074 5dbc 844b 7cbd e499 b83d
00000010: fed3 9d3d 1867 6c3d 1413 7cbd 38fa 663d
00000020: 3291 8ebd ea4b f63d a887 90bd 84f0 adbd
00000030: 6232 efbd ee03 95bd 3493 b23d 6034 89bc
00000040: 5c6b 2cbd 50e0 ee3d 00d9 353d f843 3ebd
00000050: 7a94 d73d c421 f1bd 9632 d83d 90a8 ebbd
00000060: 7840 963d 0c44 a6bd e041 573d 58ae ba3d
00000070: b445 9c3d 3c5a 25bd 744b 993d 0ab9 ddbd
00000080: 8c1b a6bd c665 aabd 008b 533c 286b 453d
00000090: 5c3e f83d 6a33 d73d 0065 763c b009 4fbd
000000a0: f090 ba3c 50a1 27bd 9896 93bd c06f 6ebc
000000b0: 9a75 a53d fcaf e13d 980e eebd 381d a4bd
000000c0: 30c5 783c 904f 5e3d 363c fb3d 20a9 45bd
000000d0: e0f3 883d 64f9 3cbd d8e3 e43c dc53 e43d
000000e0: 8899 b8bd 98a7 0abd 989b acbc c82c 45bd
000000f0: 8640 85bd f098 33bd 50d7 bbbc b4e8 363d
00000100: 9870 81bd a492 56bd e4e7 03bd 7491 113d
00000110: 10d2 e73c 0e2d efbd 70d3 543c 60a3 e7bb
00000120: 0024 9b3c 70e9 913c b842 1b3d f20e 8b3d
00000130: ccfb b0bd 50d8 99bc 685b dfbd f0c9 3cbd
00000140: 8064 a5ba 5e46 ff3d bcca eebd 88e6 f1bc
00000150: fe27 cdbd ae4e 93bd 18d0 8a3c c65f a33d
00000160: c412 bbbd 2a4d c53d 5047 743c 62fe c1bd
00000170: 3629 fc3d 8061 ef3d a036 a9bd 00fb f0bb
00000180: c616 f43d 40a0 1fbb 32c8 f3bd 5817 babd
00000190: 2a90 e43d 88ef b1bc 5c48 ac3d 2080 9abc
000001a0: 7cc3 6cbd 50a7 c0bd 742d b73d d262 db3d
000001b0: 40d8 ae3c d048 d5bc e8e3 49bd feb2 df3d
000001c0: 5230 8bbd a031 973b 1cb5 bfbd f871 e6bc
000001d0: da1a fbbd 30f6 8cbc 10c4 4cbc 1092 1ebd
000001e0: e8b3 373d e0a4 ac3b 9c23 ae3d 6083 66bd
000001f0: 8022 fdbc e0de 283d 3270 b0bd bed5 ec3d
00000200: e2b1 9b3d 20e7 7a3d c0f9 813b b0d5 12bd
00000210: 807b 3bbc a807 d03d 58da b23c de2d cbbd
00000220: d825 c4bc 4c3b 753d b47f ea3d 8074 80bd
00000230: 0634 aa3d b41f adbd e4f4 4ebd 26c4 bcbd
00000240: fcd9 a3bd 50d5 45bd 7055 d63d 0ecd ee3d
00000250: 90e0 df3c ba6c 893d 4445 08bd 6edb c93d
00000260: 8a71 b2bd 7059 0e3d 6879 623d 20c4 d43b
00000270: 125e af3d 507e ad3c 0096 f9ba 2ca3 0ebd
00000280: 48cd 963c a08d dcbc f4ee c6bd 3235 f83d
00000290: c8c5 aabd 482d de3d b09c 163d 800e e5ba
000002a0: 98fc 2ebd 7e0d bd3d 64f7 7dbd f843 cc3d
000002b0: c467 7b3d dc22 f33d a4ba 103d d486 aa3d
000002c0: e8f0 d1bc 7cc4 e53d fa0f f2bd 4271 853d
000002d0: a050 643d ae78 8b3d 0eb3 c0bd 20d0 c2bc
000002e0: e8f5 eb3d d4a6 0d3d c850 1cbd a037 983d
000002f0: e413 12bd d27f 81bd ce93 d53d 5249 d33d
